device:cuda
display_plot:True
net:ONet3d_v3_DoubleConv(
  (conv): DoubleConvTwoOut(
    (DoubleConvTwoOut): Sequential(
      (0): Conv3d(4, 24, kernel_size=(3, 3, 3), stride=(1, 1, 1), padding=(1, 1, 1))
      (1): GroupNorm(8, 24, eps=1e-05, affine=True)
      (2): ReLU(inplace=True)
      (3): Conv3d(24, 24, kernel_size=(3, 3, 3), stride=(1, 1, 1), padding=(1, 1, 1))
      (4): GroupNorm(8, 24, eps=1e-05, affine=True)
      (5): ReLU(inplace=True)
    )
  )
  (enc1_bot): Down(
    (encoder): Sequential(
      (0): MaxPool3d(kernel_size=2, stride=2, padding=0, dilation=1, ceil_mode=False)
      (1): DoubleConv(
        (double_conv): Sequential(
          (0): Conv3d(24, 48, kernel_size=(3, 3, 3), stride=(1, 1, 1), padding=(1, 1, 1))
          (1): GroupNorm(8, 48, eps=1e-05, affine=True)
          (2): ReLU(inplace=True)
          (3): Conv3d(48, 48, kernel_size=(3, 3, 3), stride=(1, 1, 1), padding=(1, 1, 1))
          (4): GroupNorm(8, 48, eps=1e-05, affine=True)
          (5): ReLU(inplace=True)
        )
      )
    )
  )
  (enc2_bot): Down(
    (encoder): Sequential(
      (0): MaxPool3d(kernel_size=2, stride=2, padding=0, dilation=1, ceil_mode=False)
      (1): DoubleConv(
        (double_conv): Sequential(
          (0): Conv3d(48, 96, kernel_size=(3, 3, 3), stride=(1, 1, 1), padding=(1, 1, 1))
          (1): GroupNorm(8, 96, eps=1e-05, affine=True)
          (2): ReLU(inplace=True)
          (3): Conv3d(96, 96, kernel_size=(3, 3, 3), stride=(1, 1, 1), padding=(1, 1, 1))
          (4): GroupNorm(8, 96, eps=1e-05, affine=True)
          (5): ReLU(inplace=True)
        )
      )
    )
  )
  (enc3_bot): Down(
    (encoder): Sequential(
      (0): MaxPool3d(kernel_size=2, stride=2, padding=0, dilation=1, ceil_mode=False)
      (1): DoubleConv(
        (double_conv): Sequential(
          (0): Conv3d(96, 192, kernel_size=(3, 3, 3), stride=(1, 1, 1), padding=(1, 1, 1))
          (1): GroupNorm(8, 192, eps=1e-05, affine=True)
          (2): ReLU(inplace=True)
          (3): Conv3d(192, 192, kernel_size=(3, 3, 3), stride=(1, 1, 1), padding=(1, 1, 1))
          (4): GroupNorm(8, 192, eps=1e-05, affine=True)
          (5): ReLU(inplace=True)
        )
      )
    )
  )
  (enc4_bot): Down(
    (encoder): Sequential(
      (0): MaxPool3d(kernel_size=2, stride=2, padding=0, dilation=1, ceil_mode=False)
      (1): DoubleConv(
        (double_conv): Sequential(
          (0): Conv3d(192, 192, kernel_size=(3, 3, 3), stride=(1, 1, 1), padding=(1, 1, 1))
          (1): GroupNorm(8, 192, eps=1e-05, affine=True)
          (2): ReLU(inplace=True)
          (3): Conv3d(192, 192, kernel_size=(3, 3, 3), stride=(1, 1, 1), padding=(1, 1, 1))
          (4): GroupNorm(8, 192, eps=1e-05, affine=True)
          (5): ReLU(inplace=True)
        )
      )
    )
  )
  (enc1_top): Down(
    (encoder): Sequential(
      (0): MaxPool3d(kernel_size=2, stride=2, padding=0, dilation=1, ceil_mode=False)
      (1): DoubleConv(
        (double_conv): Sequential(
          (0): Conv3d(24, 48, kernel_size=(1, 1, 1), stride=(1, 1, 1))
          (1): GroupNorm(8, 48, eps=1e-05, affine=True)
          (2): ReLU(inplace=True)
          (3): Conv3d(48, 48, kernel_size=(1, 1, 1), stride=(1, 1, 1))
          (4): GroupNorm(8, 48, eps=1e-05, affine=True)
          (5): ReLU(inplace=True)
        )
      )
    )
  )
  (enc2_top): Down(
    (encoder): Sequential(
      (0): MaxPool3d(kernel_size=2, stride=2, padding=0, dilation=1, ceil_mode=False)
      (1): DoubleConv(
        (double_conv): Sequential(
          (0): Conv3d(48, 96, kernel_size=(1, 1, 1), stride=(1, 1, 1))
          (1): GroupNorm(8, 96, eps=1e-05, affine=True)
          (2): ReLU(inplace=True)
          (3): Conv3d(96, 96, kernel_size=(1, 1, 1), stride=(1, 1, 1))
          (4): GroupNorm(8, 96, eps=1e-05, affine=True)
          (5): ReLU(inplace=True)
        )
      )
    )
  )
  (enc3_top): Down(
    (encoder): Sequential(
      (0): MaxPool3d(kernel_size=2, stride=2, padding=0, dilation=1, ceil_mode=False)
      (1): DoubleConv(
        (double_conv): Sequential(
          (0): Conv3d(96, 192, kernel_size=(1, 1, 1), stride=(1, 1, 1))
          (1): GroupNorm(8, 192, eps=1e-05, affine=True)
          (2): ReLU(inplace=True)
          (3): Conv3d(192, 192, kernel_size=(1, 1, 1), stride=(1, 1, 1))
          (4): GroupNorm(8, 192, eps=1e-05, affine=True)
          (5): ReLU(inplace=True)
        )
      )
    )
  )
  (enc4_top): Down(
    (encoder): Sequential(
      (0): MaxPool3d(kernel_size=2, stride=2, padding=0, dilation=1, ceil_mode=False)
      (1): DoubleConv(
        (double_conv): Sequential(
          (0): Conv3d(192, 192, kernel_size=(1, 1, 1), stride=(1, 1, 1))
          (1): GroupNorm(8, 192, eps=1e-05, affine=True)
          (2): ReLU(inplace=True)
          (3): Conv3d(192, 192, kernel_size=(1, 1, 1), stride=(1, 1, 1))
          (4): GroupNorm(8, 192, eps=1e-05, affine=True)
          (5): ReLU(inplace=True)
        )
      )
    )
  )
  (dec1_bot): Up(
    (up): Upsample(scale_factor=2.0, mode=trilinear)
    (conv): DoubleConv(
      (double_conv): Sequential(
        (0): Conv3d(384, 96, kernel_size=(3, 3, 3), stride=(1, 1, 1), padding=(1, 1, 1))
        (1): GroupNorm(8, 96, eps=1e-05, affine=True)
        (2): ReLU(inplace=True)
        (3): Conv3d(96, 96, kernel_size=(3, 3, 3), stride=(1, 1, 1), padding=(1, 1, 1))
        (4): GroupNorm(8, 96, eps=1e-05, affine=True)
        (5): ReLU(inplace=True)
      )
    )
  )
  (dec2_bot): Up(
    (up): Upsample(scale_factor=2.0, mode=trilinear)
    (conv): DoubleConv(
      (double_conv): Sequential(
        (0): Conv3d(192, 48, kernel_size=(3, 3, 3), stride=(1, 1, 1), padding=(1, 1, 1))
        (1): GroupNorm(8, 48, eps=1e-05, affine=True)
        (2): ReLU(inplace=True)
        (3): Conv3d(48, 48, kernel_size=(3, 3, 3), stride=(1, 1, 1), padding=(1, 1, 1))
        (4): GroupNorm(8, 48, eps=1e-05, affine=True)
        (5): ReLU(inplace=True)
      )
    )
  )
  (dec3_bot): Up(
    (up): Upsample(scale_factor=2.0, mode=trilinear)
    (conv): DoubleConv(
      (double_conv): Sequential(
        (0): Conv3d(96, 24, kernel_size=(3, 3, 3), stride=(1, 1, 1), padding=(1, 1, 1))
        (1): GroupNorm(8, 24, eps=1e-05, affine=True)
        (2): ReLU(inplace=True)
        (3): Conv3d(24, 24, kernel_size=(3, 3, 3), stride=(1, 1, 1), padding=(1, 1, 1))
        (4): GroupNorm(8, 24, eps=1e-05, affine=True)
        (5): ReLU(inplace=True)
      )
    )
  )
  (dec4_bot): Up(
    (up): Upsample(scale_factor=2.0, mode=trilinear)
    (conv): DoubleConv(
      (double_conv): Sequential(
        (0): Conv3d(48, 24, kernel_size=(3, 3, 3), stride=(1, 1, 1), padding=(1, 1, 1))
        (1): GroupNorm(8, 24, eps=1e-05, affine=True)
        (2): ReLU(inplace=True)
        (3): Conv3d(24, 24, kernel_size=(3, 3, 3), stride=(1, 1, 1), padding=(1, 1, 1))
        (4): GroupNorm(8, 24, eps=1e-05, affine=True)
        (5): ReLU(inplace=True)
      )
    )
  )
  (dec1_top): Up(
    (up): Upsample(scale_factor=2.0, mode=trilinear)
    (conv): DoubleConv(
      (double_conv): Sequential(
        (0): Conv3d(384, 96, kernel_size=(1, 1, 1), stride=(1, 1, 1))
        (1): GroupNorm(8, 96, eps=1e-05, affine=True)
        (2): ReLU(inplace=True)
        (3): Conv3d(96, 96, kernel_size=(1, 1, 1), stride=(1, 1, 1))
        (4): GroupNorm(8, 96, eps=1e-05, affine=True)
        (5): ReLU(inplace=True)
      )
    )
  )
  (dec2_top): Up(
    (up): Upsample(scale_factor=2.0, mode=trilinear)
    (conv): DoubleConv(
      (double_conv): Sequential(
        (0): Conv3d(192, 48, kernel_size=(1, 1, 1), stride=(1, 1, 1))
        (1): GroupNorm(8, 48, eps=1e-05, affine=True)
        (2): ReLU(inplace=True)
        (3): Conv3d(48, 48, kernel_size=(1, 1, 1), stride=(1, 1, 1))
        (4): GroupNorm(8, 48, eps=1e-05, affine=True)
        (5): ReLU(inplace=True)
      )
    )
  )
  (dec3_top): Up(
    (up): Upsample(scale_factor=2.0, mode=trilinear)
    (conv): DoubleConv(
      (double_conv): Sequential(
        (0): Conv3d(96, 24, kernel_size=(1, 1, 1), stride=(1, 1, 1))
        (1): GroupNorm(8, 24, eps=1e-05, affine=True)
        (2): ReLU(inplace=True)
        (3): Conv3d(24, 24, kernel_size=(1, 1, 1), stride=(1, 1, 1))
        (4): GroupNorm(8, 24, eps=1e-05, affine=True)
        (5): ReLU(inplace=True)
      )
    )
  )
  (dec4_top): Up(
    (up): Upsample(scale_factor=2.0, mode=trilinear)
    (conv): DoubleConv(
      (double_conv): Sequential(
        (0): Conv3d(48, 24, kernel_size=(1, 1, 1), stride=(1, 1, 1))
        (1): GroupNorm(8, 24, eps=1e-05, affine=True)
        (2): ReLU(inplace=True)
        (3): Conv3d(24, 24, kernel_size=(1, 1, 1), stride=(1, 1, 1))
        (4): GroupNorm(8, 24, eps=1e-05, affine=True)
        (5): ReLU(inplace=True)
      )
    )
  )
  (before_out): BeforeOut(
    (mergeConv): Sequential(
      (0): Conv3d(48, 24, kernel_size=(3, 3, 3), stride=(1, 1, 1), padding=(1, 1, 1))
      (1): GroupNorm(8, 24, eps=1e-05, affine=True)
      (2): ReLU(inplace=True)
    )
  )
  (out): Out(
    (conv): Conv3d(24, 3, kernel_size=(1, 1, 1), stride=(1, 1, 1))
  )
)
criterion:BCEDiceLoss(
  (bce): BCEWithLogitsLoss()
  (dice): DiceLoss()
)
optimizer:Adam (
Parameter Group 0
    amsgrad: False
    betas: (0.9, 0.999)
    capturable: False
    differentiable: False
    eps: 1e-08
    foreach: None
    fused: False
    lr: 5e-05
    maximize: False
    weight_decay: 0
)
scheduler:<torch.optim.lr_scheduler.ReduceLROnPlateau object at 0x7fe8f9dd2f10>
…
